…
en states at whatever layer you like. - Alternatively, one can further fine-tune the entire model on a downstream dataset, similar to BERT. For this, you can use [`ImageGPTForImageClassification`]. - ImageGPT comes in different sizes: there's ImageGPT-small, ImageGPT-medium and ImageGPT-large. The authors did also train an XL variant, which they didn't release. The differences in size are summarized in the following table: | **Model variant** | **Depths** | **Hidden sizes** | **Decoder hidden size** | **Params (M)** | **ImageNet-1k Top 1** | |---|---|---|---|---|---| | MiT-b0 | [2, 2, 2, 2] | [32, 64, 160, 256] | 256 | 3.7 | 70.5 | | MiT-b1 | [2, 2, 2, 2] | [64, 128, 320, 512] | 256 | 14.0 | 78.7 | | MiT-b2 | [3, 4, 6, 3] | [64, 128, 320, 512] | 768 | 25.4 | 81.6 | | MiT-b3 | [3, 4, 18, 3] | [64, 128, 320, 512] | 768 | 45.2 | 83.1 | | MiT-b4 | [3, 8, 27, 3] | [64, 128, 320, 512] | 768 | 62.6 | 83.6 | | MiT-b5 | [3, 6, 40, 3] | [64, 128, 320, 512] | 768 | 82.0 | 83.8 | ## Resources A list of official Hugging Face and community (indicated by :globe_showing_Americas:) resources to help you get started with ImageGPT. - Demo notebooks for ImageGPT can be found [here]( - [`ImageGPTForImageClassification`] is supported by this [example script]( and [notebook]( - See also: [Image classification task guide](../tasks/image_classification) If you're inter
…
trates the architecture of PoolFormer. Taken from the [original paper]( Tips: - PoolFormer has a hierarchical architecture, where instead of Attention, a simple Average Pooling layer is present. All checkpoints of the model can be found on the [hub]( - One can use [`PoolFormerImageProcessor`] to prepare images for the model. - As most models, PoolFormer comes in different sizes, the details of which can be found in the table below. | **Model variant** | **Depths** | **Hidden sizes** | **Params (M)** | **ImageNet-1k Top 1** | | | ------------- | ------------------- | | | | s12 | [2, 2, 6, 2] | [64, 128, 320, 512] | 12 | 77.2 | | s24 | [4, 4, 12, 4] | [64, 128, 320, 512] | 21 | 80.3 | | s36 | [6, 6, 18, 6] | [64, 128, 320, 512] | 31 | 81.4 | | m36 | [6, 6, 18, 6] | [96, 192, 384, 768] | 56 | 82.1 | | m48 | [8, 8, 24, 8] | [96, 192, 384, 768] | 73 | 82.5 | This model was contributed by [heytanay]( The original code can be found [here]( ## Resources A list of official Hugging Face and community (indicated by :globe_showing_Americas:) resources to help you get started with PoolFormer. - [`PoolFormerForImageClassification`] is supported by this [example script]( and [notebook]( - See also: [Image classification task guide](../tasks/image_clas
…
